[Tue May 24 07:01:22 2022]starts experiments setting base_single_100_L2
=> creating model ...
SiameseNetwork(
  (fc1): Sequential(
    (0): Linear(in_features=5, out_features=32, bias=True)
    (1): BatchNorm1d(32, eps=1e-05, momentum=0.1, affine=True, track_running_stats=True)
    (2): ReLU(inplace=True)
    (3): Linear(in_features=32, out_features=32, bias=True)
    (4): BatchNorm1d(32, eps=1e-05, momentum=0.1, affine=True, track_running_stats=True)
    (5): ReLU(inplace=True)
    (6): Linear(in_features=32, out_features=16, bias=True)
  )
  (fc2): Sequential(
    (0): Linear(in_features=32, out_features=32, bias=True)
    (1): BatchNorm1d(32, eps=1e-05, momentum=0.1, affine=True, track_running_stats=True)
    (2): ReLU(inplace=True)
    (3): Linear(in_features=32, out_features=32, bias=True)
    (4): BatchNorm1d(32, eps=1e-05, momentum=0.1, affine=True, track_running_stats=True)
    (5): ReLU(inplace=True)
    (6): Linear(in_features=32, out_features=1, bias=True)
  )
)
SYS:
  EXP_NAME: base_single_100_L2
  OUTPUT_DIR: results/base_single_100_L2/
  GPUS: 0
  WORKERS: 8
  PIN_MEMORY: True
  LOCAL_RANK: 
TRAIN:
  RESUME: 
  START_EPOCH: 1
  END_EPOCH: 100
  BATCH_SIZE: 256
  SEED: 8967
  CUDNN:
    BENCHMARK: True
    DETERMINISTIC: False
    ENABLED: True
  OPT:
    LR: 0.001
    NAME: Adam
    MOMENTUM: 0.9
  PRINT_FREQ: 50
…
